…
1.get_default_graph instead.\n","\n","W0718 05:26:56.046869 140093397354368 deprecation_wrapper.py:119] From /usr/local/lib/python3.6/dist-packages/keras/backend/tensorflow_backend.py:4138: The name tf.random_uniform is deprecated. Please use tf.random.uniform instead.\n","\n"],"name":"stderr"},{"output_type":"stream","text":["Reshaped Shape = (?, 15, 3)\n","_________________________________________________________________\n","Layer (type)                 Output Shape              Param #   \n","=================================================================\n","main_input (InputLayer)      (None, 45)                0         \n","_________________________________________________________________\n","dense_1 (Dense)              (None, 30)                1380      \n","_________________________________________________________________\n","dense_2 (Dense)              (None, 22)                682       \n","_________________________________________________________________\n","dense_3 (Dense)              (None, 18)                414       \n","_________________________________________________________________\n","dense_4 (Dense)              (None, 15)                285       \n","_________________________________________________________________\n","dense_5 (Dense)              (None, 18)                288       \n","_________________________________________________________________\n","dense_6 (Dense)              (None, 22)                418       \n","_________________________________________________________________\n","dense_7 (Dense)              (None, 30)                690       \n","_________________________________________________________________\n","dense_8 (Dense)              (None, 45)                1395      \n","_________________________________________________________________\n","lambda_1 (Lambda)            (None, 15, 3)             0         \n","_________________________________________________________________\n","softmax_1 (Softmax)          (None, 15, 3)             0         \n","=================================================================\n","Total params: 5,552\n","Trainable params: 5,552\n","Non-trainable params: 0\n","_________________________________________________________________\n"],"name":"stdout"}]},{"cell_type":"code","metadata":{"id":"kgg1QnfjlJz2","colab_type":"code","colab":{"base_uri":"https://localhost:8080/","height":34},"outputId":"5e0b
…
